models/classifier.pt (torch, 174013 bytes, 2 tensors)

weight f4 [21, 2048]
000000 1b 20 87 ba c1 3f 84 3c db fd 87 bc bf a3 ff bb
       -0.0010309251 0.016143681 -0.01660054 -0.0078015025
000010 c9 99 d4 3b 4a 61 0c b9 28 c6 e1 bb d3 78 1e bc
       0.006488059 -0.00013387683 -0.006890077 -0.009672361
000020 ef b4 13 3c 87 bb e1 3b d7 ef 72 3c 0a d4 25 ba
       0.009015306 0.00688881 0.01482769 -0.0006325847
000030 7a 22 da 3b 7e 64 b2 3b 84 e9 8f bc 0d dd ae bc
       0.006656942 0.0054441085 -0.017567404 -0.02134564
000040 45 95 ac bc 5c 97 64 bb 92 53 b1 3c 63 00 13 bc
       -0.021067271 -0.0034880256 0.021646295 -0.00897226
000050 ac 6e 86 3c e9 7f 3f 3c 83 e2 a6 bc 2b 07 aa 3c
       0.016410194 0.011688211 -0.020371681 0.020755371
000060 04 12 6a bc ed 85 a1 3a 8e 68 6f 3c 78 e8 83 bc
       -0.014286522 0.0012323238 0.01461233 -0.01610206
000070 2a 11 9d 3c 8b b8 46 3c 9f e7 8f 3c 2c 8e 5b 3c
       0.019173224 0.012128959 0.0175665 0.013400596
000080 87 a2 8a 3c d0 65 a9 3c ab 3b 8e 3a 50 e9 26 bc
       0.016923202 0.02067843 0.0010851523 -0.010187462
000090 c9 49 b4 3c 90 aa b3 bc 39 1e 86 3c 98 91 0e bc
       0.02200784 -0.021931916 0.016371833 -0.008701704
0000a0 c6 50 a0 bc db b5 a7 bc be 5d 2b 3b 12 e0 53 3c
       -0.019569766 -0.020472458 0.0026148404 0.0129318405
0000b0 d5 f5 26 bc a5 c9 81 bb e2 5c 07 bc 43 50 9b ba
       -0.010190447 -0.0039608055 -0.008261891 -0.0011849481
0000c0 26 58 56 3b be 7d ee bb 43 fe aa bb af cb 23 3c
       0.003270635 -0.007278173 -0.0052182986 0.009997292
0000d0 3e c6 1a bc fc b4 09 3c 01 93 04 3a 2e 8d e7 3b
       -0.009446679 0.008404966 0.00050573057 0.0070663905
0000e0 ea eb 94 bc 77 a0 94 3b af ca 8d bc be 61 99 bc
       -0.018178899 0.0045357305 -0.017308561 -0.018723365
0000f0 ce f2 6d bc 5b 50 5b 3c bd a8 38 bc 3c 39 e7 bb
       -0.014523221 0.013385857 -0.011270699 -0.0070563834
000100 57 77 49 bc f5 85 f7 b9 1f 0a 20 3a 29 b1 51 bc
       -0.012296519 -0.00047211317 0.0006105024 -0.012798586
000110 f1 71 c4 3b f0 03 a0 bc 1e 2c e5 ba 40 be 47 bb
       0.005995028 -0.019533128 -0.0017484461 -0.0030478388
000120 50 55 a4 3c b1 73 99 bb e2 a1 0b bb cd cc a1 3c
       0.020060211 -0.004682981 -0.0021306206 0.019750977
000130 07 70 97 3c 6d bf b5 bb c2 44 a9 bc a3 bd 1c bc
       0.018486036 -0.0055465014 -0.02066267 -0.009566697
000140 79 e2 f8 3a 51 14 66 bc d4 fb 44 3c 52 12 a5 bc
       0.0018988393 -0.01404293 0.012022931 -0.020150337
000150 87 27 97 bc 44 34 1f 3b d2 e5 b7 3b 7d 1b 5d bc
       -0.018451465 0.0024292627 0.0056121135 -0.013495323
000160 e8 87 84 3c 8f 6a 2b bb 05 d2 d5 bb bd df 9e 3c
       0.016178086 -0.0026156043 -0.0065252804 0.019393796
000170 f0 ac 9e 3c f7 a8 09 ba 34 92 ab 3b 71 e3 57 3c
       0.019369572 -0.0005251313 0.0052359346 0.013176785
000180 85 38 55 bc c9 84 aa bc fa 1e 79 3b c7 dd 87 bc
       -0.013013964 -0.02081527 0.0038012848 -0.016585244
000190 68 1f 94 3c e6 52 a8 3c 31 20 4f 3c 2b 3a 48 39
       0.018081382 0.020547342 0.012641952 0.00019095156
0001a0 e2 d6 90 3c 1e e3 21 bc af 9d 8f 3c 39 66 97 3c
       0.01768059 -0.009880809 0.017531244 0.01848136
0001b0 44 d7 97 bc a6 7b 49 bc c3 35 9b bc 14 b3 d2 bb
       -0.018535264 -0.0122975465 -0.018946534 -0.006430039
0001c0 8b 6d 90 bc 0b 8d 89 bc b0 52 0d bc d1 66 b2 bc
       -0.01763036 -0.016790887 -0.008625671 -0.021777542
0001d0 53 ac 95 bb 1f 34 dc 3b cf df 48 3a 8c b0 84 3c
       -0.004567662 0.0067200805 0.00076627446 0.016197465
0001e0 8d 2d 9a bb 7e 05 96 3c f9 3e cb bb 57 ae 8e 3c
       -0.004705137 0.018313166 -0.0062025753 0.017417116
0001f0 88 f2 32 3b 44 74 a9 bc 54 a9 22 3c 24 08 33 3b
       0.0027305204 -0.020685323 0.009928066 0.0027318085
000200 5e b8 cc 3b 98 91 e4 bb d1 3e 0c 3b d0 cc f9 bb
       0.006247564 -0.006975364 0.0021399746 -0.0076232925
000210 ea 4b d9 3b f4 74 88 bb df de b1 3c 98 f5 d5 3b
       0.006631364 -0.0041643325 0.021712719 0.006529521
000220 38 18 a1 bc 26 88 3a bc 07 5e 5e 3c 87 bb c8 bb
       -0.019664869 -0.011384999 0.013572223 -0.0061258706
000230 e8 07 4f 3b 65 19 5e 3c 69 8d 46 3c b1 be af bc
       0.0031590406 0.013555859 0.012118676 -0.021453233
000240 c0 b6 a3 bb b0 d6 af 3c d9 4b b1 3c 7d a6 c0 ba
       -0.0049961507 0.021464676 0.021642612 -0.0014698055
000250 8a 60 12 3c aa 63 0c 3c f2 33 a9 b8 0c eb 96 3c
       0.0089341495 0.008568684 -8.0682235e-05 0.018422626
000260 81 9e 6b ba a9 a5 03 bc e6 6d a0 bc 58 ce 0f 3c
       -0.00089881575 -0.008035102 -0.019583654 0.0087772235
000270 b7 7c 1c bc dd e3 1a 3c 76 8f b4 3b be 31 ac 3c
       -0.009551219 0.009453741 0.005510266 0.021019813
000280 9e de 8d bb 37 51 ee 3b 99 75 c6 3b b0 99 6b 3c
       -0.0043295166 0.007272865 0.006056499 0.014379904
000290 b1 fe 26 bc 68 0b 7e bc 2c 9b 9f 3b b5 16 91 3c
       -0.010192559 -0.015505649 0.004870793 0.017711023
0002a0 d5 9d 30 bc 4c 08 70 bc 75 f2 a7 bc c6 21 a2 3b
       -0.010779818 -0.014650416 -0.020501355 0.0049478738
0002b0 ac bf b9 3b 9d 4a 54 bc 52 82 7c 3c eb aa c2 bb
       0.005668601 -0.012957242 0.01541193 -0.005940785
0002c0 7b 87 41 3c bd 94 02 bb bf 81 5c ba 54 1c 4a bb
       0.011812086 -0.001992508 -0.00084116677 -0.0030839639
0002d0 1a dd 42 3c c7 2c b1 bc db 35 8b 3c 5b 7e 8a bc
       0.011893535 -0.021627797 0.016993454 -0.016905954
0002e0 32 2d 99 3c 51 ef a3 bb 68 0b d6 bb 9b 58 64 bc
       0.018698309 -0.005002894 -0.0065321214 -0.013937141
0002f0 d6 a4 88 bb 73 4f 4a bc d9 a1 27 bc 90 b5 91 3c
       -0.0041700406 -0.012348044 -0.010231459 0.017786771
000300 ac 2a 89 bc 38 03 aa 3b 5f 22 af 3a 72 f0 ff bb
       -0.01674398 0.005188372 0.0013361684 -0.0078106457
000310 03 5b 38 bc 55 06 dd b9 09 ea 9f bb 49 1a 0d 3b
       -0.011252168 -0.00042157123 -0.004880194 0.002153056
000320 76 f0 33 3c 75 57 57 3b aa ae 3c bc 1e 63 7a 3c
       0.010982623 0.0032858525 -0.0115162525 0.01528242
000330 bf 67 9f bc 71 91 2d 3b af ca 88 bc 1e 68 aa 3c
       -0.01945865 0.0026484395 -0.01669821 0.0208016
000340 6a 37 38 bc f5 aa ae ba b2 79 97 3c 71 36 94 3b
       -0.0112436805 -0.0013326096 0.018490646 0.0045230915
000350 8c e6 1e bc 1d 20 b4 bc 60 01 92 3c 54 d3 9b 3c
       -0.009698521 -0.021987969 0.017822921 0.019021668
000360 7e e5 fe ba fe 7e 8b 3c e2 53 4e bc b9 9a a4 bb
       -0.0019447056 0.017028328 -0.012593241 -0.005023327
000370 7b 1a b1 3c 1b d0 e4 3b fd b7 31 3c 78 77 11 bb
       0.021619072 0.006982816 0.010847089 -0.0022196453
000380 fa 4f 55 3c 39 c0 9f bc a5 08 a4 3c d0 73 d6 3b
       0.013019556 -0.019500839 0.020023653 0.0065445676
000390 0c b6 28 3c 7d 34 a6 bc 33 7a 17 bc ff 93 e1 b8
       0.01029731 -0.0202887 -0.009245443 -0.000107564025
0003a0 a1 28 43 3c 1f 45 54 3c 0f 86 fd 3a 7e 6c 21 bc
       0.011911542 0.012955933 0.0019342321 -0.009852527
0003b0 bd 19 a7 3c 1f dd 94 3b a0 1d 9b 3c 5c b8 b2 3c
       0.020398015 0.0045429613 0.018935025 0.021816425
0003c0 16 f8 e3 ba 64 78 9f 3c b1 51 8b 3b e9 82 77 bc
       -0.0017392661 0.019466586 0.0042516817 -0.015106895
0003d0 ea 32 88 bc 1c a3 e1 3b 87 03 1f bc f2 58 41 bc
       -0.01662584 0.006885899 -0.009705431 -0.011800991
0003e0 5a d0 87 ba 9d 39 8b 3c e5 2a 56 bc 54 5a dc 3b
       -0.0010361776 0.016995246 -0.01307175 0.006724635
0003f0 16 0a 9c 3c ec 75 ab bc d1 73 4f bc c3 c5 58 bc
       0.019047778 -0.020930253 -0.01266189 -0.013230744

bias f4 [21]
000000 23 e2 e0 bb 1f c4 a2 3c da 86 8a bc e6 c2 1b 3c
       -0.006862895 0.019868908 -0.016910005 0.009506917
000010 24 a9 05 bc 02 23 4d bb 8d 63 2e bc 19 dc 37 3c
       -0.008158002 -0.0031301384 -0.010643852 0.011221909
000020 1a f4 e4 bb cf b6 8b 3b 21 4d 1a bc 60 2e 88 3b
       -0.006987107 0.004263736 -0.009417803 0.004155919
000030 9a 8f 15 bc 84 2c 17 3c 8e 61 cb 3b f6 7a 11 ba
       -0.009128476 0.009226922 0.006206698 -0.00055496336
000040 8d f5 09 bc db d0 b2 bc db 2a 22 3c ae 8d b6 bb
       -0.00842036 -0.021828106 0.009897913 -0.0055710888
000050 ec 71 0f bc
       -0.008755188
