models/classifier_final.pt (torch, 174061 bytes, 2 tensors)

weight f4 [21, 2048]
-0.0095113525 -0.019839387 -0.00814944 -0.013910483 0.017354168 -0.013737038 0.007389962 0.015216603
0.008024778 0.0071132737 0.009051647 -0.000604046 0.0079000555 -0.0028447858 -0.018984234 0.019791028
0.0066748518 0.013615895 -0.0110164145 -0.014420417 0.010186832 0.021964956 -0.019199254 -0.012142341
0.017444532 0.012156204 0.008580211 0.0033314186 0.0114298565 -0.011333938 0.010358576 -0.0008834796
0.0015774643 -0.019541776 0.011020015 -0.017186986 0.007931486 0.015520356 -0.019661767 -0.019378586
0.002788122 0.014695268 0.008753803 0.012604539 -0.005792294 0.009236558 0.011526644 0.011790233
0.019639723 0.0042677424 -0.0035756147 -0.0020375815 0.014437766 0.0097639235 -0.008156221 -0.0077205305
-0.0022061083 0.015257554 -0.018608395 -0.01739279 -0.018680487 0.016695581 0.0053137084 0.018593421
-0.015728084 0.01789361 -0.019985624 -0.0045918147 -0.012986353 -0.012262725 -0.0053085405 -0.011252686
0.0028017592 -0.0120291235 0.013280248 0.005673482 0.016353456 0.0032904597 0.01505938 0.020100476
0.0025111989 0.0061377613 -0.016311038 -0.018986834 0.014967455 -0.016020613 -0.0039660684 0.013249742
0.007393819 0.0025578474 -0.009563391 -0.0042116293 0.01851197 -0.010815279 0.0038376076 0.003109505
-0.00013651891 -0.019292759 -0.009550284 0.007564082 0.02143394 -0.016195156 0.009879269 -0.018698614
-0.016544681 0.009478397 0.00277444 0.016459405 0.016565729 0.016600568 -0.012402834 -0.010399503
-0.015326527 0.010182033 -0.011638083 -0.008584001 -0.01861136 -0.016352132 -0.012405672 -0.0032056207
-0.018784579 -0.011653587 -0.0043627494 0.0010032082 0.021910239 0.002595806 -0.011008685 0.0147982985
-0.0031602154 -0.013405334 -0.013982786 0.0024936446 -0.02003437 -0.01912429 -0.012768788 0.016273124
0.003335894 -0.016747592 0.0147997495 -0.0020341359 0.021270506 -0.0045338077 -0.012816021 0.0007083331
-0.009381765 -0.015149292 -0.019493094 0.020437824 0.011182983 -0.0027741608 -0.013971261 -0.010608912
-0.004982321 0.018576665 0.021083506 0.015090948 -0.0005069186 0.012384901 0.009860442 -0.009213528
-0.018738767 0.010247203 0.014336577 -0.018220646 -0.021471867 -0.006755112 0.011381875 -0.02149623
-0.004356409 0.008582434 -0.0029217487 0.018942757 -0.00094005646 -0.00699521 0.011708497 -0.0018960655
-0.01906116 0.0161418 0.0053333095 -0.0074574393 0.002150332 -0.0048065847 0.0035562404 0.010707736
0.014695987 -0.015586426 -0.01931939 0.003194544 0.0046263486 0.0057061063 0.010656873 -0.02152331
-0.019521361 -0.009923818 -0.0018410402 -0.012703315 0.0019817844 -0.007963855 -0.00203878 -0.00068277103
-0.0087264255 0.00067963375 0.0011051984 0.00508443 -0.009418119 -0.0145816505 0.0027579316 0.017683648
0.008825982 -0.0082934275 -0.018415013 -0.019246625 0.003168289 -0.01802377 0.0001438709 0.0001938755
0.015411751 0.0021351513 0.020015096 0.015032592 -0.017010206 0.014561022 -0.002641754 0.014799075
0.012458379 0.021306286 0.00082062284 0.0044236383 0.0044947267 -0.012423676 0.0044610095 0.014789447
0.0020425415 -0.0014037113 0.0069281016 0.002946394 0.012481945 0.016147217 -0.004928178 -0.016824199
0.018630927 0.002434963 0.017213318 -0.013290564 -0.0009961934 -0.0054713693 0.015632242 0.0073384354
-0.00027888306 0.0016154808 -0.012332101 0.011904643 0.0108102085 -0.00342264 0.0030295735 -0.0005301652
00000000: 81d5 1bbc 3686 a2bc 3b85 05bc cbe8 63bc
00000010: 542a 8e3c 5011 61bc 7f27 f23b 0f4f 793c
00000020: 5c7a 033c 7716 e93b 5c4d 143c d758 1eba
00000030: 3c6f 013c 966f 3abb d384 9bbc cb20 a23c
00000040: b7b8 da3b 3415 5f3c 317e 34bc 9d43 6cbc
00000050: ace6 263c daef b33c c147 9dbc abf0 46bc
00000060: d6e7 8e3c d12a 473c 0394 0c3c ee53 5a3b
00000070: 4b44 3b3c fbb1 39bc 04b7 293c 5099 67ba
00000080: ebc2 ce3a 1316 a0bc 4b8d 343c b9cb 8cbc
00000090: 10f3 013c 1749 7e3c b711 a1bc d7bf 9ebc
000000a0: edb8 363b 6cc4 703c 1c6c 0f3c 4583 4e3c
000000b0: 49cd bdbb ef54 173c 40da 3c3c d22b 413c
000000c0: 7ce3 a03c 6bd8 8b3b dc54 6abb f288 05bb
000000d0: 618c 6c3c ddf8 1f3c aca1 05bc 81fc fcbb
000000e0: 5b94 10bb d2fa 793c a270 98bc 537b 8ebc
000000f0: d207 99bc 2cc5 883c 9e1e ae3b 3b51 983c
00000100: 2fd8 80bc 9f95 923c e4b8 a3bc ef76 96bb
00000110: b6c4 54bc 99e9 48bc 44f3 adbb 305d 38bc
00000120: b89d 373b cd15 45bc 6695 593c 9ee8 b93b
00000130: aff7 853c c1a4 573b 9ebb 763c c1a9 a43c
00000140: ed92 243b 461f c93b ba9e 85bc 478a 9bbc
00000150: 0e3a 753c a93d 83bc cbf5 81bb 7215 593c
00000160: d947 f23b 8fa1 273b c5af 1cbc b501 8abb
00000170: 6aa6 973c 9132 31bc 5f80 7b3b d6c8 4b3b
00000180: 8426 0fb9 d90b 9ebc cb78 1cbc 1edc f73b
00000190: 3b96 af3c b4ab 84bc a8dc 213c d62d 99bc
000001a0: b688 87bc 474b 1b3c 61d3 353b e0d5 863c
000001b0: dab4 873c eafd 873c 4235 4bbc ad62 2abc
000001c0: 1d1c 7bbc 8bd2 263c a8ad 3ebc e9a3 0cbc
000001d0: da76 98bc e8f4 85bc 2941 4bbc 6415 52bb
000001e0: 1ee2 99bc b0ee 3ebc 65f5 8ebb 157e 833a
000001f0: 1a7d b33c 661e 2a3b c65d 34bc 9074 723c
00000200: 9e1b 4fbb 0ca2 5bbc 0e18 65bc 6a6c 233b
00000210: 1e1f a4bc 8baa 9cbc 2e34 51bc 374f 853c
00000220: 049f 5a3b 3f32 89bc a67a 723c 234f 05bb
00000230: 7c3f ae3c 5690 94bb 4afa 51bc 6eaf 393a
00000240: f9b5 19bc bc34 78bc fbaf 9fbc 396d a73c
00000250: d538 373c b2ce 35bb b7e7 64bc 01d1 2dbc
00000260: bd42 a3bb 172e 983c 51b7 ac3c 0640 773c
00000270: bbe2 04ba 0aea 4a3c b18d 213c 56f4 16bc
00000280: 0b82 99bc e2e3 273c f6e3 6a3c 7743 95bc
00000290: c5e5 afbc fd59 ddbb 0b7b 3a3c dd18 b0bc
000002a0: 35c0 8ebb 569d 0c3c cf7a 3fbb d72d 9b3c
000002b0: 1f6e 76ba 1338 e5bb ffd4 3f3c 6785 f8ba
000002c0: 2626 9cbc cf3b 843c 0bc3 ae3b 895d f4bb
000002d0: 96ec 0c3b 8e80 9dbb d00f 693b 806f 2f3c
000002e0: 70c7 703c 355e 7fbc b343 9ebc 8e5b 513b
000002f0: a098 973b 4afa ba3b 2a9a 2e3c a751 b0bc
00000300: 43eb 9fbc 8297 22bc 0f4f f1ba 9121 50bc
00000310: d3e0 013b d47a 02bc 0d9d 05bb fdfb 32ba
00000320: 48f9 0ebc 7329 323a 4edc 903a 4a9b a63b
00000330: 744e 1abc e0e7 6ebc 6abe 343b 4cdd 903c
00000340: da9a 103c 28e1 07bc 15db 96bc 19ab 9dbc
00000350: 12a3 4f3b 96a6 93bc 0ddc 1639 0f4b 4b39
00000360: 9281 7c3c e5ed 0b3b b3f6 a33c 434b 763c
00000370: fd58 8bbc 5a91 6e3c 4721 2dbb d277 723c
00000380: 3b1e 4c3c 858a ae3c 111f 573a 2bf4 903b
00000390: 8048 933b ad8c 4bbc a92d 923b 704f 723c
000003a0: 29dc 053b bcfc b7ba 2105 e33b 4a18 413b
000003b0: 1281 4c3c 2b47 843c 8e7c a1bb e7d2 89bc
000003c0: e39f 983c e693 1f3b f202 8d3c aac0 59bc
000003d0: b492 82ba 2c49 b3bb 300f 803c 4277 f03b
000003e0: 0d37 92b9 8abe d33a 950c 4abc b10b 433c
000003f0: 4d1d 313c 5f4e 60bb cf8b 463b c9fa 0aba

bias f4 [21]
-0.0020665785 0.009764911 -0.010524666 -0.01702552 0.021778183 -0.010670357 -0.007696955 0.0075845704
0.0028610965 0.014498131 -0.011253406 -0.010276548 -0.0026121351 0.004980725 0.019748712 -0.0023829353
-0.012707936 -0.0055601676 -0.0049233367 -0.009783543 0.0069742603
00000000: 6f6f 07bb 01fd 1f3c a66f 2cbc 1a79 8bbc
00000010: 2968 b23c b9d2 2ebc bd36 fcbb fd87 f83b
00000020: 3c81 3b3b 9289 6d3c 3560 38bc f75e 28bc
00000030: 5b30 2bbb 5935 a33b 0dc8 a13c 052b 1cbb
00000040: f234 50bc 1132 b6bb f153 a1bb 274b 20bc
00000050: 5688 e43b
